…
    warmup_ratio=1e-06,
    power=1.0,
    min_lr=0.0,
    by_epoch=False)
bs = 2
runner = dict(type='IterBasedRunner', max_iters=46200)
checkpoint_config = dict(interval=1155)
evaluation = dict(
    interval=1155, metric='mIoU', pre_eval=True, save_best='mIoU')
fp16 = dict()
work_dir = './work_dirs/convnext_large_exp_002'
gpu_ids = range(0, 3)
auto_resume = False

2023-10-28 03:30:49,289 - mmseg - INFO - Set random seed to 3407, deterministic: True
2023-10-28 03:30:52,573 - mmseg - INFO - EncoderDecoder(
  (backbone): ConvNeXt(
    (downsample_layers): ModuleList(
      (0): Sequential(
        (0): Conv2d(3, 192, kernel_size=(4, 4), stride=(4, 4))
        (1): LayerNorm2d((192,), eps=1e-06, elementwise_affine=True)
      )
      (1): Sequential(
        (0): LayerNorm2d((192,), eps=1e-05, elementwise_affine=True)
        (1): Conv2d(192, 384, kernel_size=(2, 2), stride=(2, 2))
      )
      (2): Sequential(
        (0): LayerNorm2d((384,), eps=1e-05, elementwise_affine=True)
        (1): Conv2d(384, 768, kernel_size=(2, 2), stride=(2, 2))
      )
      (3): Sequential(
        (0): LayerNorm2d((768,), eps=1e-05, elementwise_affine=True)
        (1): Conv2d(768, 1536, kernel_size=(2, 2), stride=(2, 2))
      )
    )
    (stages): ModuleList(
      (0): Sequential(
        (0): ConvNeXtBlock(
          (depthwise_conv): Conv2d(192, 192, kernel_size=(7, 7), stride=(1, 1), padding=(3, 3), groups=192)
          (norm): LayerNorm2d((192,), eps=1e-06, elementwise_affine=True)
          (pointwise_conv1): Linear(in_features=192, out_features=768, bias=True)
          (act): GELU(approximate='none')
          (pointwise_conv2): Linear(in_features=768, out_features=192, bias=True)
          (drop_path): Identity()
        )
        (1): ConvNeXtBlock(
          (depthwise_conv): Conv2d(192, 192, kernel_size=(7, 7), stride=(1, 1), padding=(3, 3), groups=192)
          (norm): LayerNorm2d((192,), eps=1e-06, elementwise_affine=True)
          (pointwise_conv1): Linear(in_features=192, out_features=768, bias=True)
          (act): GELU(approximate='none')
          (pointwise_conv2): Linear(in_features=768, out_features=192, bias=True)
          (drop_path): DropPath()
        )
        (2): ConvNeXtBlock(
          (depthwise_conv): Conv2d(192, 192, kernel_size=(7, 7), stride=(1, 1), padding=(3, 3), groups=192)
          (norm): LayerNorm2d((192,), eps=1e-06, elementwise_affine=True)
          (pointwise_conv1): Linear(in_features=192, out_features=768, bias=True)
          (act): GELU(approximate='none')
          (pointwise_conv2): Linear(in_features=768, out_features=192, bias=True)
          (drop_path): DropPath()
        )
      )
      (1): Sequential(
        (0): ConvNeXtBlock(
          (depthwise_conv): Conv2d(384, 384, kernel_size=(7, 7), stride=(1, 1), padding=(3, 3), groups=384)
          (norm): LayerNorm2d((384,), eps=1e-06, elementwise_affine=True)
          (pointwise_conv1): Linear(in_features=384, out_features=1536, bias=True)
          (act): GELU(approximate='none')
          (pointwise_conv2): Linear(in_features=1536, out_features=384, bias=True)
          (drop_path): DropPath()
        )
        (1): ConvNeXtBlock(
          (depthwise_conv): Conv2d(384, 384, kernel_size=(7, 7), stride=(1, 1), padding=(3, 3), groups=384)
          (norm): LayerNorm2d((384,), eps=1e-06, elementwise_affine=True)
          (pointwise_conv1): Linear(in_features=384, out_features=1536, bias=True)
          (act): GELU(approximate='none')
          (pointwise_conv2): Linear(in_features=1536, out_features=384, bias=True)
          (drop_path): DropPath()
        )
        (2): ConvNeXtBlock(
          (depthwise_conv): Conv2d(384, 384, kernel_size=(7, 7), stride=(1, 1), padding=(3, 3), groups=384)
          (norm): LayerNorm2d((384,), eps=1e-06, elementwise_affine=True)
          (pointwise_conv1): Linear(in_features=384, out_features=1536, bias=True)
          (act): GELU(approximate='none')
          (pointwise_conv2): Linear(in_features=1536, out_features=384, bias=True)
          (drop_path): DropPath()
        )
      )
      (2): Sequential(
        (0): ConvNeXtBlock(
          (depthwise_conv): Conv2d(768, 768, kernel_size=(7, 7), stride=(1, 1), padding=(3, 3), groups=768)
          (norm): LayerNorm2d((768,), eps=1e-06, elementwise_affine=True)
          (pointwise_conv1): Linear(in_features=768, out_features=3072, bias=True)
          (act): GELU(approximate='none')
          (pointwise_conv2): Linear(in_features=3072, out_features=768, bias=True)
          (drop_path): DropPath()
        )
        (1): ConvNeXtBlock(
          (depthwise_conv): Conv2d(768, 768, kernel_size=(7, 7), stride=(1, 1), padding=(3, 3), groups=768)
          (norm): LayerNorm2d((768,), eps=1e-06, elementwise_affine=True)
          (pointwise_conv1): Linear(in_features=768, out_features=3072, bias=True)
          (act): GELU(approximate='none')
          (pointwise_conv2): Linear(in_features=3072, out_features=768, bias=True)
          (drop_path): DropPath()
        )
        (2): ConvNeXtBlock(
          (depthwise_conv): Conv2d(768, 768, kernel_size=(7, 7), stride=(1, 1), padding=(3, 3), groups=768)
          (norm): LayerNorm2d((768,), eps=1e-06, elementwise_affine=True)
          (pointwise_conv1): Linear(in_features=768, out_features=3072, bias=True)
          (act): GELU(approximate='none')
          (pointwise_conv2): Linear(in_features=3072, out_features=768, bias=True)
          (drop_path): DropPath()
        )
        (3): ConvNeXtBlock(
          (depthwise_conv): Conv2d(768, 768, kernel_size=(7, 7), stride=(1, 1), padding=(3, 3), groups=768)
          (norm): LayerNorm2d((768,), eps=1e-06, elementwise_affine=True)
          (pointwise_conv1): Linear(in_features=768, out_features=3072, bias=True)
          (act): GELU(approximate='none')
          (pointwise_conv2): Linear(in_features=3072, out_features=768, bias=True)
          (drop_path): DropPath()
        )
        (4): ConvNeXtBlock(
          (depthwise_conv): Conv2d(768, 768, kernel_size=(7, 7), stride=(1, 1), padding=(3, 3), groups=768)
          (norm): LayerNorm2d((768,), eps=1e-06, elementwise_affine=True)
          (pointwise_conv1): Linear(in_features=768, out_features=3072, bias=True)
          (act): GELU(approximate='none')
          (pointwise_conv2): Linear(in_features=3072, out_features=768, bias=True)
          (drop_path): DropPath()
        )
        (5): ConvNeXtBlock(
          (depthwise_conv): Conv2d(768, 768, kernel_size=(7, 7), stride=(1, 1), padding=(3, 3), groups=768)
          (norm): LayerNorm2d((768,), eps=1e-06, elementwise_affine=True)
          (pointwise_conv1): Linear(in_features=768, out_features=3072, bias=True)
          (act): GELU(approximate='none')
          (pointwise_conv2): Linear(in_features=3072, out_features=768, bias=True)
          (drop_path): DropPath()
        )
        (6): ConvNeXtBlock(
          (depthwise_conv): Conv2d(768, 768, kernel_size=(7, 7), stride=(1, 1), padding=(3, 3), groups=768)
          (norm): LayerNorm2d((768,), eps=1e-06, elementwise_affine=True)
          (pointwise_conv1): Linear(in_features=768, out_features=3072, bias=True)
          (act): GELU(approximate='none')
          (pointwise_conv2): Linear(in_features=3072, out_features=768, bias=True)
          (drop_path): DropPath()
        )
        (7): ConvNeXtBlock(
          (depthwise_conv): Conv2d(768, 768, kernel_size=(7, 7), stride=(1, 1), padding=(3, 3), groups=768)
          (norm): LayerNorm2d((768,), eps=1e-06, elementwise_affine=True)
          (pointwise_conv1): Linear(in_features=768, out_features=3072, bias=True)
          (act): GELU(approximate='none')
          (pointwise_conv2): Linear(in_features=3072, out_features=768, bias=True)
          (drop_path): DropPath()
        )
        (8): ConvNeXtBlock(
          (depthwise_conv): Conv2d(768, 768, kernel_size=(7, 7), stride=(1, 1), padding=(3, 3), groups=768)
          (norm): LayerNorm2d((768,), eps=1e-06, elementwise_affine=True)
          (pointwise_conv1): Linear(in_features=768, out_features=3072, bias=True)
          (act): GELU(approximate='none')
          (pointwise_conv2): Linear(in_features=3072, out_features=768, bias=True)
          (drop_path): DropPath()
        )
        (9): ConvNeXtBlock(
          (depthwise_conv): Conv2d(768, 768, kernel_size=(7, 7), stride=(1, 1), padding=(3, 3), groups=768)
          (norm): LayerNorm2d((768,), eps=1e-06, elementwise_affine=True)
          (pointwise_conv1): Linear(in_features=768, out_features=3072, bias=True)
          (act): GELU(approximate='none')
          (pointwise_conv2): Linear(in_features=3072, out_features=768, bias=True)
          (drop_path): DropPath()
        )
        (10): ConvNeXtBlock(
          (depthwise_conv): Conv2d(768, 768, kernel_size=(7, 7), stride=(1, 1), padding=(3, 3), groups=768)
          (norm): LayerNorm2d((768,), eps=1e-06, elementwise_affine=True)
          (pointwise_conv1): Linear(in_features=768, out_features=3072, bias=True)
          (act): GELU(approximate='none')
          (pointwise_conv2): Linear(in_features=3072, out_features=768, bias=True)
          (drop_path): DropPath()
        )
        (11): ConvNeXtBlock(
          (depthwise_conv): Conv2d(768, 768, kernel_size=(7, 7), stride=(1, 1), padding=(3, 3), groups=768)
          (norm): LayerNorm2d((768,), eps=1e-06, elementwise_affine=True)
          (pointwise_conv1): Linear(in_features=768, out_features=3072, bias=True)
          (act): GELU(approximate='none')
          (pointwise_conv2): Linear(in_features=3072, out_features=768, bias=True)
          (drop_path): DropPath()
        )
        (12): ConvNeXtBlock(
          (depthwise_conv): Conv2d(768, 768, kernel_size=(7, 7), stride=(1, 1), padding=(3, 3), groups=768)
          (norm): LayerNorm2d((768,), eps=1e-06, elementwise_affine=True)
          (pointwise_conv1): Linear(in_features=768, out_features=3072, bias=True)
          (act): GELU(approximate='none')
          (pointwise_conv2): Linear(in_features=3072, out_features=768, bias=True)
          (drop_path): DropPath()
        )
        (13): ConvNeXtBlock(
          (depthwise_conv): Conv2d(768, 768, kernel_size=(7, 7), stride=(1, 1), padding=(3, 3), groups=768)
          (norm): LayerNorm2d((768,), eps=1e-06, elementwise_affine=True)
          (pointwise_conv1): Linear(in_features=768, out_features=3072, bias=True)
          (act): GELU(approximate='none')
          (pointwise_conv2): Linear(in_features=3072, out_features=768, bias=True)
          (drop_path): DropPath()
        )
        (14): ConvNeXtBlock(
          (depthwise_conv): Conv2d(768, 768, kernel_size=(7, 7), stride=(1, 1), padding=(3, 3), groups=768)
          (norm): LayerNorm2d((768,), eps=1e-06, elementwise_affine=True)
          (pointwise_conv1): Linear(in_features=768, out_features=3072, bias=True)
          (act): GELU(approximate='none')
          (pointwise_conv2): Linear(in_features=3072, out_features=768, bias=True)
          (drop_path): DropPath()
        )
        (15): ConvNeXtBlock(
          (depthwise_conv): Conv2d(768, 768, kernel_size=(7, 7), stride=(1, 1), padding=(3, 3), groups=768)
          (norm): LayerNorm2d((768,), eps=1e-06, elementwise_affine=True)
          (pointwise_conv1): Linear(in_features=768, out_features=3072, bias=True)
          (act): GELU(approximate='none')
          (pointwise_conv2): Linear(in_features=3072, out_features=768, bias=True)
          (drop_path): DropPath()
        )
        (16): ConvNeXtBlock(
          (depthwise_conv): Conv2d(768, 768, kernel_size=(7, 7), stride=(1, 1), padding=(3, 3), groups=768)
          (norm): LayerNorm2d((768,), eps=1e-06, elementwise_affine=True)
          (pointwise_conv1): Linear(in_features=768, out_features=3072, bias=True)
          (act): GELU(approximate='none')
          (pointwise_conv2): Linear(in_features=3072, out_features=768, bias=True)
          (drop_path): DropPath()
        )
        (17): ConvNeXtBlock(
          (depthwise_conv): Conv2d(768, 768, kernel_size=(7, 7), stride=(1, 1), padding=(3, 3), groups=768)
          (norm): LayerNorm2d((768,), eps=1e-06, elementwise_affine=True)
          (pointwise_conv1): Linear(in_features=768, out_features=3072, bias=True)
          (act): GELU(approximate='none')
          (pointwise_conv2): Linear(in_features=3072, out_features=768, bias=True)
          (drop_path): DropPath()
        )
        (18): ConvNeXtBlock(
          (depthwise_conv): Conv2d(768, 768, kernel_size=(7, 7), stride=(1, 1), padding=(3, 3), groups=768)
          (norm): LayerNorm2d((768,), eps=1e-06, elementwise_affine=True)
          (pointwise_conv1): Linear(in_features=768, out_features=3072, bias=True)
          (act): GELU(approximate='none')
          (pointwise_conv2): Linear(in_features=3072, out_features=768, bias=True)
          (drop_path): DropPath()
        )
        (19): ConvNeXtBlock(
          (depthwise_conv): Conv2d(768, 768, kernel_size=(7, 7), stride=(1, 1), padding=(3, 3), groups=768)
          (norm): LayerNorm2d((768,), eps=1e-06, elementwise_affine=True)
          (pointwise_conv1): Linear(in_features=768, out_features=3072, bias=True)
          (act): GELU(approximate='none')
          (pointwise_conv2): Linear(in_features=3072, out_features=768, bias=True)
          (drop_path): DropPath()
        )
        (20): ConvNeXtBlock(
          (depthwise_conv): Conv2d(768, 768, kernel_size=(7, 7), stride=(1, 1), padding=(3, 3), groups=768)
          (norm): LayerNorm2d((768,), eps=1e-06, elementwise_affine=True)
          (pointwise_conv1): Linear(in_features=768, out_features=3072, bias=True)
          (act): GELU(approximate='none')
          (pointwise_conv2): Linear(in_features=3072, out_features=768, bias=True)
          (drop_path): DropPath()
        )
        (21): ConvNeXtBlock(
          (depthwise_conv): Conv2d(768, 768, kernel_size=(7, 7), stride=(1, 1), padding=(3, 3), groups=768)
          (norm): LayerNorm2d((768,), eps=1e-06, elementwise_affine=True)
          (pointwise_conv1): Linear(in_features=768, out_features=3072, bias=True)
          (act): GELU(approximate='none')
          (pointwise_conv2): Linear(in_features=3072, out_features=768, bias=True)
          (drop_path): DropPath()
        )
        (22): ConvNeXtBlock(
          (depthwise_conv): Conv2d(768, 768, kernel_size=(7, 7), stride=(1, 1), padding=(3, 3), groups=768)
          (norm): LayerNorm2d((768,), eps=1e-06, elementwise_affine=True)
          (pointwise_conv1): Linear(in_features=768, out_features=3072, bias=True)
          (act): GELU(approximate='none')
          (pointwise_conv2): Linear(in_features=3072, out_features=768, bias=True)
          (drop_path): DropPath()
        )
        (23): ConvNeXtBlock(
          (depthwise_conv): Conv2d(768, 768, kernel_size=(7, 7), stride=(1, 1), padding=(3, 3), groups=768)
          (norm): LayerNorm2d((768,), eps=1e-06, elementwise_affine=True)
          (pointwise_conv1): Linear(in_features=768, out_features=3072, bias=True)
          (act): GELU(approximate='none')
          (pointwise_conv2): Linear(in_features=3072, out_features=768, bias=True)
          (drop_path): DropPath()
        )
        (24): ConvNeXtBlock(
          (depthwise_conv): Conv2d(768, 768, kernel_size=(7, 7), stride=(1, 1), padding=(3, 3), groups=768)
          (norm): LayerNorm2d((768,), eps=1e-06, elementwise_affine=True)
          (pointwise_conv1): Linear(in_features=768, out_features=3072, bias=True)
          (act): GELU(approximate='none')
          (pointwise_conv2): Linear(in_features=3072, out_features=768, bias=True)
          (drop_path): DropPath()
        )
        (25): ConvNeXtBlock(
          (depthwise_conv): Conv2d(768, 768, kernel_size=(7, 7), stride=(1, 1), padding=(3, 3), groups=768)
          (norm): LayerNorm2d((768,), eps=1e-06, elementwise_affine=True)
          (pointwise_conv1): Linear(in_features=768, out_features=3072, bias=True)
          (act): GELU(approximate='none')
          (pointwise_conv2): Linear(in_features=3072, out_features=768, bias=True)
          (drop_path): DropPath()
        )
        (26): ConvNeXtBlock(
          (depthwise_conv): Conv2d(768, 768, kernel_size=(7, 7), stride=(1, 1), padding=(3, 3), groups=768)
          (norm): LayerNorm2d((768,), eps=1e-06, elementwise_affine=True)
          (pointwise_conv1): Linear(in_features=768, out_features=3072, bias=True)
          (act): GELU(approximate='none')
          (pointwise_conv2): Linear(in_features=3072, out_features=768, bias=True)
          (drop_path): DropPath()
        )
      )
      (3): Sequential(
        (0): ConvNeXtBlock(
          (depthwise_conv): Conv2d(1536, 1536, kernel_size=(7, 7), stride=(1, 1), padding=(3, 3), groups=1536)
          (norm): LayerNorm2d((1536,), eps=1e-06, elementwise_affine=True)
          (pointwise_conv1): Linear(in_features=1536, out_features=6144, bias=True)
          (act): GELU(approximate='none')
          (pointwise_conv2): Linear(in_features=6144, out_features=1536, bias=True)
          (drop_path): DropPath()
        )
        (1): ConvNeXtBlock(
          (depthwise_conv): Conv2d(1536, 1536, kernel_size=(7, 7), stride=(1, 1), padding=(3, 3), groups=1536)
          (norm): LayerNorm2d((1536,), eps=1e-06, elementwise_affine=True)
          (pointwise_conv1): Linear(in_features=1536, out_features=6144, bias=True)
          (act): GELU(approximate='none')
          (pointwise_conv2): Linear(in_features=6144, out_features=1536, bias=True)
          (drop_path): DropPath()
        )
        (2): ConvNeXtBlock(
          (depthwise_conv): Conv2d(1536, 1536, kernel_size=(7, 7), stride=(1, 1), padding=(3, 3), groups=1536)
          (norm): LayerNorm2d((1536,), eps=1e-06, elementwise_affine=True)
          (pointwise_conv1): Linear(in_features=1536, out_features=6144, bias=True)
          (act): GELU(approximate='none')
          (pointwise_conv2): Linear(in_features=6144, out_features=1536, bias=True)
          (drop_path): DropPath()
        )
      )
    )
    (norm0): LayerNorm2d((192,), eps=1e-06, elementwise_affine=True)
    (norm1): LayerNorm2d((384,), eps=1e-06, elementwise_affine=True)
    (norm2): LayerNorm2d((768,), eps=1e-06, elementwise_affine=True)
    (norm3): LayerNorm2d((1536,), eps=1e-06, elementwise_affine=True)
  )
  init_cfg={'type': 'Pretrained', 'checkpoint': 'https://download.openmmlab.com/mmclassification/v0/convnext/downstream/convnext-large_3rdparty_in21k_20220301-e6e0ea0a.pth', 'prefix': 'backbone.'}
  (decode_head): UPerHead(
    input_transform=multiple_select, ignore_index=255, align_corners=False
    (loss_decode): CrossEntropyLoss(avg_non_ignore=False)
    (conv_seg): Conv2d(512, 150, kernel_size=(1, 1), stride=(1, 1))
    (dropout): Dropout2d(p=0.1, inplace=False)
    (psp_modules): PPM(
      (0): Sequential(
        (0): AdaptiveAvgPool2d(output_size=1)
        (1): ConvModule(
          (conv): Conv2d(1536, 512, kernel_size=(1, 1), stride=(1, 1), bias=False)
          (bn): SyncBatchNorm(512, eps=1e-05, momentum=0.1, affine=True, track_running_stats=True)
          (activate): ReLU(inplace=True)
        )
      )
      (1): Sequential(
        (0): AdaptiveAvgPool2d(output_size=2)
        (1): ConvModule(
          (conv): Conv2d(1536, 512, kernel_size=(1, 1), stride=(1, 1), bias=False)
          (bn): SyncBatchNorm(512, eps=1e-05, momentum=0.1, affine=True, track_running_stats=True)
          (activate): ReLU(inplace=True)
        )
      )
      (2): Sequential(
        (0): AdaptiveAvgPool2d(output_size=3)
        (1): ConvModule(
          (conv): Conv2d(1536, 512, kernel_size=(1, 1), stride=(1, 1), bias=False)
          (bn): SyncBatchNorm(512, eps=1e-05, momentum=0.1, affine=True, track_running_stats=True)
          (activate): ReLU(inplace=True)
        )
      )
      (3): Sequential(
        (0): AdaptiveAvgPool2d(output_size=6)
        (1): ConvModule(
          (conv): Conv2d(1536, 512, kernel_size=(1, 1), stride=(1, 1), bias=False)
          (bn): SyncBatchNorm(512, eps=1e-05, momentum=0.1, affine=True, track_running_stats=True)
          (activate): ReLU(inplace=True)
        )
      )
    )
    (bottleneck): ConvModule(
      (conv): Conv2d(3584, 512, kernel_size=(3, 3), stride=(1, 1), padding=(1, 1), bias=False)
      (bn): SyncBatchNorm(512, eps=1e-05, momentum=0.1, affine=True, track_running_stats=True)
      (activate): ReLU(inplace=True)
    )
    (lateral_convs): ModuleList(
      (0): ConvModule(
        (conv): Conv2d(192, 512, kernel_size=(1, 1), stride=(1, 1), bias=False)
        (bn): SyncBatchNorm(512, eps=1e-05, momentum=0.1, affine=True, track_running_stats=True)
        (activate): ReLU()
      )
      (1): ConvModule(
        (conv): Conv2d(384, 512, kernel_size=(1, 1), stride=(1, 1), bias=False)
        (bn): SyncBatchNorm(512, eps=1e-05, momentum=0.1, affine=True, track_running_stats=True)
        (activate): ReLU()
      )
      (2): ConvModule(
        (conv): Conv2d(768, 512, kernel_size=(1, 1), stride=(1, 1), bias=False)
        (bn): SyncBatchNorm(512, eps=1e-05, momentum=0.1, affine=True, track_running_stats=True)
        (activate): ReLU()
      )
    )
    (fpn_convs): ModuleList(
      (0): ConvModule(
        (conv): Conv2d(512, 512, kernel_size=(3, 3), stride=(1, 1), padding=(1, 1), bias=False)
        (bn): SyncBatchNorm(512, eps=1e-05, momentum=0.1, affine=True, track_running_stats=True)
        (activate): ReLU()
      )
      (1): ConvModule(
        (conv): Conv2d(512, 512, kernel_size=(3, 3), stride=(1, 1), padding=(1, 1), bias=False)
        (bn): SyncBatchNorm(512, eps=1e-05, momentum=0.1, affine=True, track_running_stats=True)
        (activate): ReLU()
      )
      (2): ConvModule(
        (conv): Conv2d(512, 512, kernel_size=(3, 3), stride=(1, 1), padding=(1, 1), bias=False)
        (bn): SyncBatchNorm(512, eps=1e-05, momentum=0.1, affine=True, track_running_stats=True)
        (activate): ReLU()
      )
    )
    (fpn_bottleneck): ConvModule(
      (conv): Conv2d(2048, 512, kernel_size=(3, 3), stride=(1, 1), padding=(1, 1), bias=False)
      (bn): SyncBatchNorm(512, eps=1e-05, momentum=0.1, affine=True, track_running_stats=True)
      (activate): ReLU(inplace=True)
    )
  )
  init_cfg={'type': 'Normal', 'std': 0.01, 'override': {'name': 'conv_seg'}}
  (auxiliary_head): FCNHead(
    input_transform=None, ignore_index=255, align_corners=False
    (loss_decode): CrossEntropyLoss(avg_non_ignore=False)
    (conv_seg): Conv2d(256, 150, kernel_size=(1, 1), stride=(1, 1))
    (dropout): Dropout2d(p=0.1, inplace=False)
    (convs): Sequential(
      (0): ConvModule(
        (conv): Conv2d(768, 256, kernel_size=(3, 3), stride=(1, 1), padding=(1, 1), bias=False)
        (bn): SyncBatchNorm(256, eps=1e-05, momentum=0.1, affine=True, track_running_stats=True)
        (activate): ReLU(inplace=True)
      )
    )
  )
  init_cfg={'type': 'Normal', 'std': 0.01, 'override': {'name': 'conv_seg'}}
)
2023-10-28 03:30:52,634 - mmseg - INFO - Loaded 6935 images
2023-10-28 03:30:54,107 - mmseg - INFO - self.paramwise_cfg is {'decay_rate': 0.9, 'decay_type': 'stage_wise', 'num_layers': 12}
…
