…
    warmup='linear',
    warmup_iters=1500,
    warmup_ratio=1e-06,
    power=1.0,
    min_lr=0.0,
    by_epoch=False)
bs = 2
runner = dict(type='IterBasedRunnerAmp', max_iters=46200)
checkpoint_config = dict(interval=1155, max_keep_ckpts=5)
evaluation = dict(
    interval=1155, metric='mIoU', pre_eval=True, save_best='mIoU')
fp16 = None
work_dir = './work_dirs/eva_02_large_exp_001/'
gpu_ids = range(0, 1)

2023-10-31 00:49:25,816 - mmseg - INFO - Set random seed to 3407, deterministic: True
2023-10-31 00:49:30,329 - mmseg - INFO - EncoderDecoder(
  (backbone): EVA2(
    (patch_embed): PatchEmbed(
      (proj): Conv2d(3, 1024, kernel_size=(16, 16), stride=(16, 16))
    )
    (pos_drop): Dropout(p=0.0, inplace=False)
    (rope): VisionRotaryEmbeddingFast()
    (blocks): ModuleList(
      (0): Block(
        (norm1): FusedLayerNorm(torch.Size([1024]), eps=1e-06, elementwise_affine=True)
        (attn): Attention(
          (q_proj): Linear(in_features=1024, out_features=1024, bias=False)
          (k_proj): Linear(in_features=1024, out_features=1024, bias=False)
          (v_proj): Linear(in_features=1024, out_features=1024, bias=False)
          (attn_drop): Dropout(p=0.0, inplace=False)
          (proj): Linear(in_features=1024, out_features=1024, bias=True)
          (proj_drop): Dropout(p=0.0, inplace=False)
          (rope): VisionRotaryEmbeddingFast()
        )
        (drop_path): Identity()
        (norm2): FusedLayerNorm(torch.Size([1024]), eps=1e-06, elementwise_affine=True)
        (mlp): SwiGLU(
          (w1): Linear(in_features=1024, out_features=2730, bias=True)
          (w2): Linear(in_features=1024, out_features=2730, bias=True)
          (act): SiLU()
          (ffn_ln): FusedLayerNorm(torch.Size([2730]), eps=1e-06, elementwise_affine=True)
          (w3): Linear(in_features=2730, out_features=1024, bias=True)
          (drop): Dropout(p=0.0, inplace=False)
        )
      )
      (1): Block(
        (norm1): FusedLayerNorm(torch.Size([1024]), eps=1e-06, elementwise_affine=True)
        (attn): Attention(
          (q_proj): Linear(in_features=1024, out_features=1024, bias=False)
          (k_proj): Linear(in_features=1024, out_features=1024, bias=False)
          (v_proj): Linear(in_features=1024, out_features=1024, bias=False)
          (attn_drop): Dropout(p=0.0, inplace=False)
          (proj): Linear(in_features=1024, out_features=1024, bias=True)
          (proj_drop): Dropout(p=0.0, inplace=False)
          (rope): VisionRotaryEmbeddingFast()
        )
        (drop_path): DropPath(p=0.008695652708411217)
        (norm2): FusedLayerNorm(torch.Size([1024]), eps=1e-06, elementwise_affine=True)
        (mlp): SwiGLU(
          (w1): Linear(in_features=1024, out_features=2730, bias=True)
          (w2): Linear(in_features=1024, out_features=2730, bias=True)
          (act): SiLU()
          (ffn_ln): FusedLayerNorm(torch.Size([2730]), eps=1e-06, elementwise_affine=True)
          (w3): Linear(in_features=2730, out_features=1024, bias=True)
          (drop): Dropout(p=0.0, inplace=False)
        )
      )
      (2): Block(
        (norm1): FusedLayerNorm(torch.Size([1024]), eps=1e-06, elementwise_affine=True)
        (attn): Attention(
          (q_proj): Linear(in_features=1024, out_features=1024, bias=False)
          (k_proj): Linear(in_features=1024, out_features=1024, bias=False)
          (v_proj): Linear(in_features=1024, out_features=1024, bias=False)
          (attn_drop): Dropout(p=0.0, inplace=False)
          (proj): Linear(in_features=1024, out_features=1024, bias=True)
          (proj_drop): Dropout(p=0.0, inplace=False)
          (rope): VisionRotaryEmbeddingFast()
        )
        (drop_path): DropPath(p=0.017391305416822433)
        (norm2): FusedLayerNorm(torch.Size([1024]), eps=1e-06, elementwise_affine=True)
        (mlp): SwiGLU(
          (w1): Linear(in_features=1024, out_features=2730, bias=True)
          (w2): Linear(in_features=1024, out_features=2730, bias=True)
          (act): SiLU()
          (ffn_ln): FusedLayerNorm(torch.Size([2730]), eps=1e-06, elementwise_affine=True)
          (w3): Linear(in_features=2730, out_features=1024, bias=True)
          (drop): Dropout(p=0.0, inplace=False)
        )
      )
      (3): Block(
        (norm1): FusedLayerNorm(torch.Size([1024]), eps=1e-06, elementwise_affine=True)
        (attn): Attention(
          (q_proj): Linear(in_features=1024, out_features=1024, bias=False)
          (k_proj): Linear(in_features=1024, out_features=1024, bias=False)
          (v_proj): Linear(in_features=1024, out_features=1024, bias=False)
          (attn_drop): Dropout(p=0.0, inplace=False)
          (proj): Linear(in_features=1024, out_features=1024, bias=True)
          (proj_drop): Dropout(p=0.0, inplace=False)
          (rope): VisionRotaryEmbeddingFast()
        )
        (drop_path): DropPath(p=0.02608695812523365)
        (norm2): FusedLayerNorm(torch.Size([1024]), eps=1e-06, elementwise_affine=True)
        (mlp): SwiGLU(
          (w1): Linear(in_features=1024, out_features=2730, bias=True)
          (w2): Linear(in_features=1024, out_features=2730, bias=True)
          (act): SiLU()
          (ffn_ln): FusedLayerNorm(torch.Size([2730]), eps=1e-06, elementwise_affine=True)
          (w3): Linear(in_features=2730, out_features=1024, bias=True)
          (drop): Dropout(p=0.0, inplace=False)
        )
      )
      (4): Block(
        (norm1): FusedLayerNorm(torch.Size([1024]), eps=1e-06, elementwise_affine=True)
        (attn): Attention(
          (q_proj): Linear(in_features=1024, out_features=1024, bias=False)
          (k_proj): Linear(in_features=1024, out_features=1024, bias=False)
          (v_proj): Linear(in_features=1024, out_features=1024, bias=False)
          (attn_drop): Dropout(p=0.0, inplace=False)
          (proj): Linear(in_features=1024, out_features=1024, bias=True)
          (proj_drop): Dropout(p=0.0, inplace=False)
          (rope): VisionRotaryEmbeddingFast()
        )
        (drop_path): DropPath(p=0.03478261083364487)
        (norm2): FusedLayerNorm(torch.Size([1024]), eps=1e-06, elementwise_affine=True)
        (mlp): SwiGLU(
          (w1): Linear(in_features=1024, out_features=2730, bias=True)
          (w2): Linear(in_features=1024, out_features=2730, bias=True)
          (act): SiLU()
          (ffn_ln): FusedLayerNorm(torch.Size([2730]), eps=1e-06, elementwise_affine=True)
          (w3): Linear(in_features=2730, out_features=1024, bias=True)
          (drop): Dropout(p=0.0, inplace=False)
        )
      )
      (5): Block(
        (norm1): FusedLayerNorm(torch.Size([1024]), eps=1e-06, elementwise_affine=True)
        (attn): Attention(
          (q_proj): Linear(in_features=1024, out_features=1024, bias=False)
          (k_proj): Linear(in_features=1024, out_features=1024, bias=False)
          (v_proj): Linear(in_features=1024, out_features=1024, bias=False)
          (attn_drop): Dropout(p=0.0, inplace=False)
          (proj): Linear(in_features=1024, out_features=1024, bias=True)
          (proj_drop): Dropout(p=0.0, inplace=False)
          (rope): VisionRotaryEmbeddingFast()
        )
        (drop_path): DropPath(p=0.04347826540470123)
        (norm2): FusedLayerNorm(torch.Size([1024]), eps=1e-06, elementwise_affine=True)
        (mlp): SwiGLU(
          (w1): Linear(in_features=1024, out_features=2730, bias=True)
          (w2): Linear(in_features=1024, out_features=2730, bias=True)
          (act): SiLU()
          (ffn_ln): FusedLayerNorm(torch.Size([2730]), eps=1e-06, elementwise_affine=True)
          (w3): Linear(in_features=2730, out_features=1024, bias=True)
          (drop): Dropout(p=0.0, inplace=False)
        )
      )
      (6): Block(
        (norm1): FusedLayerNorm(torch.Size([1024]), eps=1e-06, elementwise_affine=True)
        (attn): Attention(
          (q_proj): Linear(in_features=1024, out_features=1024, bias=False)
          (k_proj): Linear(in_features=1024, out_features=1024, bias=False)
          (v_proj): Linear(in_features=1024, out_features=1024, bias=False)
          (attn_drop): Dropout(p=0.0, inplace=False)
          (proj): Linear(in_features=1024, out_features=1024, bias=True)
          (proj_drop): Dropout(p=0.0, inplace=False)
          (rope): VisionRotaryEmbeddingFast()
        )
        (drop_path): DropPath(p=0.0521739162504673)
        (norm2): FusedLayerNorm(torch.Size([1024]), eps=1e-06, elementwise_affine=True)
        (mlp): SwiGLU(
          (w1): Linear(in_features=1024, out_features=2730, bias=True)
          (w2): Linear(in_features=1024, out_features=2730, bias=True)
          (act): SiLU()
          (ffn_ln): FusedLayerNorm(torch.Size([2730]), eps=1e-06, elementwise_affine=True)
          (w3): Linear(in_features=2730, out_features=1024, bias=True)
          (drop): Dropout(p=0.0, inplace=False)
        )
      )
      (7): Block(
        (norm1): FusedLayerNorm(torch.Size([1024]), eps=1e-06, elementwise_affine=True)
        (attn): Attention(
          (q_proj): Linear(in_features=1024, out_features=1024, bias=False)
          (k_proj): Linear(in_features=1024, out_features=1024, bias=False)
          (v_proj): Linear(in_features=1024, out_features=1024, bias=False)
          (attn_drop): Dropout(p=0.0, inplace=False)
          (proj): Linear(in_features=1024, out_features=1024, bias=True)
          (proj_drop): Dropout(p=0.0, inplace=False)
          (rope): VisionRotaryEmbeddingFast()
        )
        (drop_path): DropPath(p=0.06086956709623337)
        (norm2): FusedLayerNorm(torch.Size([1024]), eps=1e-06, elementwise_affine=True)
        (mlp): SwiGLU(
          (w1): Linear(in_features=1024, out_features=2730, bias=True)
          (w2): Linear(in_features=1024, out_features=2730, bias=True)
          (act): SiLU()
          (ffn_ln): FusedLayerNorm(torch.Size([2730]), eps=1e-06, elementwise_affine=True)
          (w3): Linear(in_features=2730, out_features=1024, bias=True)
          (drop): Dropout(p=0.0, inplace=False)
        )
      )
      (8): Block(
        (norm1): FusedLayerNorm(torch.Size([1024]), eps=1e-06, elementwise_affine=True)
        (attn): Attention(
          (q_proj): Linear(in_features=1024, out_features=1024, bias=False)
          (k_proj): Linear(in_features=1024, out_features=1024, bias=False)
          (v_proj): Linear(in_features=1024, out_features=1024, bias=False)
          (attn_drop): Dropout(p=0.0, inplace=False)
          (proj): Linear(in_features=1024, out_features=1024, bias=True)
          (proj_drop): Dropout(p=0.0, inplace=False)
          (rope): VisionRotaryEmbeddingFast()
        )
        (drop_path): DropPath(p=0.06956522166728973)
        (norm2): FusedLayerNorm(torch.Size([1024]), eps=1e-06, elementwise_affine=True)
        (mlp): SwiGLU(
          (w1): Linear(in_features=1024, out_features=2730, bias=True)
          (w2): Linear(in_features=1024, out_features=2730, bias=True)
          (act): SiLU()
          (ffn_ln): FusedLayerNorm(torch.Size([2730]), eps=1e-06, elementwise_affine=True)
          (w3): Linear(in_features=2730, out_features=1024, bias=True)
          (drop): Dropout(p=0.0, inplace=False)
        )
      )
      (9): Block(
        (norm1): FusedLayerNorm(torch.Size([1024]), eps=1e-06, elementwise_affine=True)
        (attn): Attention(
          (q_proj): Linear(in_features=1024, out_features=1024, bias=False)
          (k_proj): Linear(in_features=1024, out_features=1024, bias=False)
          (v_proj): Linear(in_features=1024, out_features=1024, bias=False)
          (attn_drop): Dropout(p=0.0, inplace=False)
          (proj): Linear(in_features=1024, out_features=1024, bias=True)
          (proj_drop): Dropout(p=0.0, inplace=False)
          (rope): VisionRotaryEmbeddingFast()
        )
        (drop_path): DropPath(p=0.0782608762383461)
        (norm2): FusedLayerNorm(torch.Size([1024]), eps=1e-06, elementwise_affine=True)
        (mlp): SwiGLU(
          (w1): Linear(in_features=1024, out_features=2730, bias=True)
          (w2): Linear(in_features=1024, out_features=2730, bias=True)
          (act): SiLU()
          (ffn_ln): FusedLayerNorm(torch.Size([2730]), eps=1e-06, elementwise_affine=True)
          (w3): Linear(in_features=2730, out_features=1024, bias=True)
          (drop): Dropout(p=0.0, inplace=False)
        )
      )
      (10): Block(
        (norm1): FusedLayerNorm(torch.Size([1024]), eps=1e-06, elementwise_affine=True)
        (attn): Attention(
          (q_proj): Linear(in_features=1024, out_features=1024, bias=False)
          (k_proj): Linear(in_features=1024, out_features=1024, bias=False)
          (v_proj): Linear(in_features=1024, out_features=1024, bias=False)
          (attn_drop): Dropout(p=0.0, inplace=False)
          (proj): Linear(in_features=1024, out_features=1024, bias=True)
          (proj_drop): Dropout(p=0.0, inplace=False)
          (rope): VisionRotaryEmbeddingFast()
        )
        (drop_path): DropPath(p=0.08695653080940247)
        (norm2): FusedLayerNorm(torch.Size([1024]), eps=1e-06, elementwise_affine=True)
        (mlp): SwiGLU(
          (w1): Linear(in_features=1024, out_features=2730, bias=True)
          (w2): Linear(in_features=1024, out_features=2730, bias=True)
          (act): SiLU()
          (ffn_ln): FusedLayerNorm(torch.Size([2730]), eps=1e-06, elementwise_affine=True)
          (w3): Linear(in_features=2730, out_features=1024, bias=True)
          (drop): Dropout(p=0.0, inplace=False)
        )
      )
      (11): Block(
        (norm1): FusedLayerNorm(torch.Size([1024]), eps=1e-06, elementwise_affine=True)
        (attn): Attention(
          (q_proj): Linear(in_features=1024, out_features=1024, bias=False)
          (k_proj): Linear(in_features=1024, out_features=1024, bias=False)
          (v_proj): Linear(in_features=1024, out_features=1024, bias=False)
          (attn_drop): Dropout(p=0.0, inplace=False)
          (proj): Linear(in_features=1024, out_features=1024, bias=True)
          (proj_drop): Dropout(p=0.0, inplace=False)
          (rope): VisionRotaryEmbeddingFast()
        )
        (drop_path): DropPath(p=0.09565217792987823)
        (norm2): FusedLayerNorm(torch.Size([1024]), eps=1e-06, elementwise_affine=True)
        (mlp): SwiGLU(
          (w1): Linear(in_features=1024, out_features=2730, bias=True)
          (w2): Linear(in_features=1024, out_features=2730, bias=True)
          (act): SiLU()
          (ffn_ln): FusedLayerNorm(torch.Size([2730]), eps=1e-06, elementwise_affine=True)
          (w3): Linear(in_features=2730, out_features=1024, bias=True)
          (drop): Dropout(p=0.0, inplace=False)
        )
      )
      (12): Block(
        (norm1): FusedLayerNorm(torch.Size([1024]), eps=1e-06, elementwise_affine=True)
        (attn): Attention(
          (q_proj): Linear(in_features=1024, out_features=1024, bias=False)
          (k_proj): Linear(in_features=1024, out_features=1024, bias=False)
          (v_proj): Linear(in_features=1024, out_features=1024, bias=False)
          (attn_drop): Dropout(p=0.0, inplace=False)
          (proj): Linear(in_features=1024, out_features=1024, bias=True)
          (proj_drop): Dropout(p=0.0, inplace=False)
          (rope): VisionRotaryEmbeddingFast()
        )
        (drop_path): DropPath(p=0.1043478325009346)
        (norm2): FusedLayerNorm(torch.Size([1024]), eps=1e-06, elementwise_affine=True)
        (mlp): SwiGLU(
          (w1): Linear(in_features=1024, out_features=2730, bias=True)
          (w2): Linear(in_features=1024, out_features=2730, bias=True)
          (act): SiLU()
          (ffn_ln): FusedLayerNorm(torch.Size([2730]), eps=1e-06, elementwise_affine=True)
          (w3): Linear(in_features=2730, out_features=1024, bias=True)
          (drop): Dropout(p=0.0, inplace=False)
        )
      )
      (13): Block(
        (norm1): FusedLayerNorm(torch.Size([1024]), eps=1e-06, elementwise_affine=True)
        (attn): Attention(
          (q_proj): Linear(in_features=1024, out_features=1024, bias=False)
          (k_proj): Linear(in_features=1024, out_features=1024, bias=False)
          (v_proj): Linear(in_features=1024, out_features=1024, bias=False)
          (attn_drop): Dropout(p=0.0, inplace=False)
          (proj): Linear(in_features=1024, out_features=1024, bias=True)
          (proj_drop): Dropout(p=0.0, inplace=False)
          (rope): VisionRotaryEmbeddingFast()
        )
        (drop_path): DropPath(p=0.11304348707199097)
        (norm2): FusedLayerNorm(torch.Size([1024]), eps=1e-06, elementwise_affine=True)
        (mlp): SwiGLU(
          (w1): Linear(in_features=1024, out_features=2730, bias=True)
          (w2): Linear(in_features=1024, out_features=2730, bias=True)
          (act): SiLU()
          (ffn_ln): FusedLayerNorm(torch.Size([2730]), eps=1e-06, elementwise_affine=True)
          (w3): Linear(in_features=2730, out_features=1024, bias=True)
          (drop): Dropout(p=0.0, inplace=False)
        )
      )
      (14): Block(
        (norm1): FusedLayerNorm(torch.Size([1024]), eps=1e-06, elementwise_affine=True)
        (attn): Attention(
          (q_proj): Linear(in_features=1024, out_features=1024, bias=False)
          (k_proj): Linear(in_features=1024, out_features=1024, bias=False)
          (v_proj): Linear(in_features=1024, out_features=1024, bias=False)
          (attn_drop): Dropout(p=0.0, inplace=False)
          (proj): Linear(in_features=1024, out_features=1024, bias=True)
          (proj_drop): Dropout(p=0.0, inplace=False)
          (rope): VisionRotaryEmbeddingFast()
        )
        (drop_path): DropPath(p=0.12173913419246674)
        (norm2): FusedLayerNorm(torch.Size([1024]), eps=1e-06, elementwise_affine=True)
        (mlp): SwiGLU(
          (w1): Linear(in_features=1024, out_features=2730, bias=True)
          (w2): Linear(in_features=1024, out_features=2730, bias=True)
          (act): SiLU()
          (ffn_ln): FusedLayerNorm(torch.Size([2730]), eps=1e-06, elementwise_affine=True)
          (w3): Linear(in_features=2730, out_features=1024, bias=True)
          (drop): Dropout(p=0.0, inplace=False)
        )
      )
      (15): Block(
        (norm1): FusedLayerNorm(torch.Size([1024]), eps=1e-06, elementwise_affine=True)
        (attn): Attention(
          (q_proj): Linear(in_features=1024, out_features=1024, bias=False)
          (k_proj): Linear(in_features=1024, out_features=1024, bias=False)
          (v_proj): Linear(in_features=1024, out_features=1024, bias=False)
          (attn_drop): Dropout(p=0.0, inplace=False)
          (proj): Linear(in_features=1024, out_features=1024, bias=True)
          (proj_drop): Dropout(p=0.0, inplace=False)
          (rope): VisionRotaryEmbeddingFast()
        )
        (drop_path): DropPath(p=0.1304347813129425)
        (norm2): FusedLayerNorm(torch.Size([1024]), eps=1e-06, elementwise_affine=True)
        (mlp): SwiGLU(
          (w1): Linear(in_features=1024, out_features=2730, bias=True)
          (w2): Linear(in_features=1024, out_features=2730, bias=True)
          (act): SiLU()
          (ffn_ln): FusedLayerNorm(torch.Size([2730]), eps=1e-06, elementwise_affine=True)
          (w3): Linear(in_features=2730, out_features=1024, bias=True)
          (drop): Dropout(p=0.0, inplace=False)
        )
      )
      (16): Block(
        (norm1): FusedLayerNorm(torch.Size([1024]), eps=1e-06, elementwise_affine=True)
        (attn): Attention(
          (q_proj): Linear(in_features=1024, out_features=1024, bias=False)
          (k_proj): Linear(in_features=1024, out_features=1024, bias=False)
          (v_proj): Linear(in_features=1024, out_features=1024, bias=False)
          (attn_drop): Dropout(p=0.0, inplace=False)
          (proj): Linear(in_features=1024, out_features=1024, bias=True)
          (proj_drop): Dropout(p=0.0, inplace=False)
          (rope): VisionRotaryEmbeddingFast()
        )
        (drop_path): DropPath(p=0.13913042843341827)
        (norm2): FusedLayerNorm(torch.Size([1024]), eps=1e-06, elementwise_affine=True)
        (mlp): SwiGLU(
          (w1): Linear(in_features=1024, out_features=2730, bias=True)
          (w2): Linear(in_features=1024, out_features=2730, bias=True)
          (act): SiLU()
          (ffn_ln): FusedLayerNorm(torch.Size([2730]), eps=1e-06, elementwise_affine=True)
          (w3): Linear(in_features=2730, out_features=1024, bias=True)
          (drop): Dropout(p=0.0, inplace=False)
        )
      )
      (17): Block(
        (norm1): FusedLayerNorm(torch.Size([1024]), eps=1e-06, elementwise_affine=True)
        (attn): Attention(
          (q_proj): Linear(in_features=1024, out_features=1024, bias=False)
          (k_proj): Linear(in_features=1024, out_features=1024, bias=False)
          (v_proj): Linear(in_features=1024, out_features=1024, bias=False)
          (attn_drop): Dropout(p=0.0, inplace=False)
          (proj): Linear(in_features=1024, out_features=1024, bias=True)
          (proj_drop): Dropout(p=0.0, inplace=False)
          (rope): VisionRotaryEmbeddingFast()
        )
        (drop_path): DropPath(p=0.14782609045505524)
        (norm2): FusedLayerNorm(torch.Size([1024]), eps=1e-06, elementwise_affine=True)
        (mlp): SwiGLU(
          (w1): Linear(in_features=1024, out_features=2730, bias=True)
          (w2): Linear(in_features=1024, out_features=2730, bias=True)
          (act): SiLU()
          (ffn_ln): FusedLayerNorm(torch.Size([2730]), eps=1e-06, elementwise_affine=True)
          (w3): Linear(in_features=2730, out_features=1024, bias=True)
          (drop): Dropout(p=0.0, inplace=False)
        )
      )
      (18): Block(
        (norm1): FusedLayerNorm(torch.Size([1024]), eps=1e-06, elementwise_affine=True)
        (attn): Attention(
          (q_proj): Linear(in_features=1024, out_features=1024, bias=False)
          (k_proj): Linear(in_features=1024, out_features=1024, bias=False)
          (v_proj): Linear(in_features=1024, out_features=1024, bias=False)
          (attn_drop): Dropout(p=0.0, inplace=False)
          (proj): Linear(in_features=1024, out_features=1024, bias=True)
          (proj_drop): Dropout(p=0.0, inplace=False)
          (rope): VisionRotaryEmbeddingFast()
        )
        (drop_path): DropPath(p=0.156521737575531)
        (norm2): FusedLayerNorm(torch.Size([1024]), eps=1e-06, elementwise_affine=True)
        (mlp): SwiGLU(
          (w1): Linear(in_features=1024, out_features=2730, bias=True)
          (w2): Linear(in_features=1024, out_features=2730, bias=True)
          (act): SiLU()
          (ffn_ln): FusedLayerNorm(torch.Size([2730]), eps=1e-06, elementwise_affine=True)
          (w3): Linear(in_features=2730, out_features=1024, bias=True)
          (drop): Dropout(p=0.0, inplace=False)
        )
      )
      (19): Block(
        (norm1): FusedLayerNorm(torch.Size([1024]), eps=1e-06, elementwise_affine=True)
        (attn): Attention(
          (q_proj): Linear(in_features=1024, out_features=1024, bias=False)
          (k_proj): Linear(in_features=1024, out_features=1024, bias=False)
          (v_proj): Linear(in_features=1024, out_features=1024, bias=False)
          (attn_drop): Dropout(p=0.0, inplace=False)
          (proj): Linear(in_features=1024, out_features=1024, bias=True)
          (proj_drop): Dropout(p=0.0, inplace=False)
          (rope): VisionRotaryEmbeddingFast()
        )
        (drop_path): DropPath(p=0.16521739959716797)
        (norm2): FusedLayerNorm(torch.Size([1024]), eps=1e-06, elementwise_affine=True)
        (mlp): SwiGLU(
          (w1): Linear(in_features=1024, out_features=2730, bias=True)
          (w2): Linear(in_features=1024, out_features=2730, bias=True)
          (act): SiLU()
          (ffn_ln): FusedLayerNorm(torch.Size([2730]), eps=1e-06, elementwise_affine=True)
          (w3): Linear(in_features=2730, out_features=1024, bias=True)
          (drop): Dropout(p=0.0, inplace=False)
        )
      )
      (20): Block(
        (norm1): FusedLayerNorm(torch.Size([1024]), eps=1e-06, elementwise_affine=True)
        (attn): Attention(
          (q_proj): Linear(in_features=1024, out_features=1024, bias=False)
          (k_proj): Linear(in_features=1024, out_features=1024, bias=False)
          (v_proj): Linear(in_features=1024, out_features=1024, bias=False)
          (attn_drop): Dropout(p=0.0, inplace=False)
          (proj): Linear(in_features=1024, out_features=1024, bias=True)
          (proj_drop): Dropout(p=0.0, inplace=False)
          (rope): VisionRotaryEmbeddingFast()
        )
        (drop_path): DropPath(p=0.17391304671764374)
        (norm2): FusedLayerNorm(torch.Size([1024]), eps=1e-06, elementwise_affine=True)
        (mlp): SwiGLU(
          (w1): Linear(in_features=1024, out_features=2730, bias=True)
          (w2): Linear(in_features=1024, out_features=2730, bias=True)
          (act): SiLU()
          (ffn_ln): FusedLayerNorm(torch.Size([2730]), eps=1e-06, elementwise_affine=True)
          (w3): Linear(in_features=2730, out_features=1024, bias=True)
          (drop): Dropout(p=0.0, inplace=False)
        )
      )
      (21): Block(
        (norm1): FusedLayerNorm(torch.Size([1024]), eps=1e-06, elementwise_affine=True)
        (attn): Attention(
          (q_proj): Linear(in_features=1024, out_features=1024, bias=False)
          (k_proj): Linear(in_features=1024, out_features=1024, bias=False)
          (v_proj): Linear(in_features=1024, out_features=1024, bias=False)
          (attn_drop): Dropout(p=0.0, inplace=False)
          (proj): Linear(in_features=1024, out_features=1024, bias=True)
          (proj_drop): Dropout(p=0.0, inplace=False)
          (rope): VisionRotaryEmbeddingFast()
        )
        (drop_path): DropPath(p=0.1826086938381195)
        (norm2): FusedLayerNorm(torch.Size([1024]), eps=1e-06, elementwise_affine=True)
        (mlp): SwiGLU(
          (w1): Linear(in_features=1024, out_features=2730, bias=True)
          (w2): Linear(in_features=1024, out_features=2730, bias=True)
          (act): SiLU()
          (ffn_ln): FusedLayerNorm(torch.Size([2730]), eps=1e-06, elementwise_affine=True)
          (w3): Linear(in_features=2730, out_features=1024, bias=True)
          (drop): Dropout(p=0.0, inplace=False)
        )
      )
      (22): Block(
        (norm1): FusedLayerNorm(torch.Size([1024]), eps=1e-06, elementwise_affine=True)
        (attn): Attention(
          (q_proj): Linear(in_features=1024, out_features=1024, bias=False)
          (k_proj): Linear(in_features=1024, out_features=1024, bias=False)
          (v_proj): Linear(in_features=1024, out_features=1024, bias=False)
          (attn_drop): Dropout(p=0.0, inplace=False)
          (proj): Linear(in_features=1024, out_features=1024, bias=True)
          (proj_drop): Dropout(p=0.0, inplace=False)
          (rope): VisionRotaryEmbeddingFast()
        )
        (drop_path): DropPath(p=0.19130435585975647)
        (norm2): FusedLayerNorm(torch.Size([1024]), eps=1e-06, elementwise_affine=True)
        (mlp): SwiGLU(
          (w1): Linear(in_features=1024, out_features=2730, bias=True)
          (w2): Linear(in_features=1024, out_features=2730, bias=True)
          (act): SiLU()
          (ffn_ln): FusedLayerNorm(torch.Size([2730]), eps=1e-06, elementwise_affine=True)
          (w3): Linear(in_features=2730, out_features=1024, bias=True)
          (drop): Dropout(p=0.0, inplace=False)
        )
      )
      (23): Block(
        (norm1): FusedLayerNorm(torch.Size([1024]), eps=1e-06, elementwise_affine=True)
        (attn): Attention(
          (q_proj): Linear(in_features=1024, out_features=1024, bias=False)
          (k_proj): Linear(in_features=1024, out_features=1024, bias=False)
          (v_proj): Linear(in_features=1024, out_features=1024, bias=False)
          (attn_drop): Dropout(p=0.0, inplace=False)
          (proj): Linear(in_features=1024, out_features=1024, bias=True)
          (proj_drop): Dropout(p=0.0, inplace=False)
          (rope): VisionRotaryEmbeddingFast()
        )
        (drop_path): DropPath(p=0.20000000298023224)
        (norm2): FusedLayerNorm(torch.Size([1024]), eps=1e-06, elementwise_affine=True)
        (mlp): SwiGLU(
          (w1): Linear(in_features=1024, out_features=2730, bias=True)
          (w2): Linear(in_features=1024, out_features=2730, bias=True)
          (act): SiLU()
          (ffn_ln): FusedLayerNorm(torch.Size([2730]), eps=1e-06, elementwise_affine=True)
          (w3): Linear(in_features=2730, out_features=1024, bias=True)
          (drop): Dropout(p=0.0, inplace=False)
        )
      )
    )
    (fpn1): Sequential(
      (0): ConvTranspose2d(1024, 1024, kernel_size=(2, 2), stride=(2, 2))
      (1): SyncBatchNorm(1024, eps=1e-05, momentum=0.1, affine=True, track_running_stats=True)
      (2): GELU(approximate='none')
      (3): ConvTranspose2d(1024, 1024, kernel_size=(2, 2), stride=(2, 2))
    )
    (fpn2): Sequential(
      (0): ConvTranspose2d(1024, 1024, kernel_size=(2, 2), stride=(2, 2))
    )
    (fpn3): Identity()
    (fpn4): MaxPool2d(kernel_size=2, stride=2, padding=0, dilation=1, ceil_mode=False)
  )
  (decode_head): UPerHead(
    input_transform=multiple_select, ignore_index=255, align_corners=False
    (loss_decode): CrossEntropyLoss(avg_non_ignore=False)
    (conv_seg): Conv2d(1024, 150, kernel_size=(1, 1), stride=(1, 1))
    (dropout): Dropout2d(p=0.1, inplace=False)
    (psp_modules): PPM(
      (0): Sequential(
        (0): AdaptiveAvgPool2d(output_size=1)
        (1): ConvModule(
          (conv): Conv2d(1024, 1024, kernel_size=(1, 1), stride=(1, 1), bias=False)
          (bn): SyncBatchNorm(1024, eps=1e-05, momentum=0.1, affine=True, track_running_stats=True)
          (activate): ReLU(inplace=True)
        )
      )
      (1): Sequential(
        (0): AdaptiveAvgPool2d(output_size=2)
        (1): ConvModule(
          (conv): Conv2d(1024, 1024, kernel_size=(1, 1), stride=(1, 1), bias=False)
          (bn): SyncBatchNorm(1024, eps=1e-05, momentum=0.1, affine=True, track_running_stats=True)
          (activate): ReLU(inplace=True)
        )
      )
      (2): Sequential(
        (0): AdaptiveAvgPool2d(output_size=3)
        (1): ConvModule(
          (conv): Conv2d(1024, 1024, kernel_size=(1, 1), stride=(1, 1), bias=False)
          (bn): SyncBatchNorm(1024, eps=1e-05, momentum=0.1, affine=True, track_running_stats=True)
          (activate): ReLU(inplace=True)
        )
      )
      (3): Sequential(
        (0): AdaptiveAvgPool2d(output_size=6)
        (1): ConvModule(
          (conv): Conv2d(1024, 1024, kernel_size=(1, 1), stride=(1, 1), bias=False)
          (bn): SyncBatchNorm(1024, eps=1e-05, momentum=0.1, affine=True, track_running_stats=True)
          (activate): ReLU(inplace=True)
        )
      )
    )
    (bottleneck): ConvModule(
      (conv): Conv2d(5120, 1024, kernel_size=(3, 3), stride=(1, 1), padding=(1, 1), bias=False)
      (bn): SyncBatchNorm(1024, eps=1e-05, momentum=0.1, affine=True, track_running_stats=True)
      (activate): ReLU(inplace=True)
    )
    (lateral_convs): ModuleList(
      (0): ConvModule(
        (conv): Conv2d(1024, 1024, kernel_size=(1, 1), stride=(1, 1), bias=False)
        (bn): SyncBatchNorm(1024, eps=1e-05, momentum=0.1, affine=True, track_running_stats=True)
        (activate): ReLU()
      )
      (1): ConvModule(
        (conv): Conv2d(1024, 1024, kernel_size=(1, 1), stride=(1, 1), bias=False)
        (bn): SyncBatchNorm(1024, eps=1e-05, momentum=0.1, affine=True, track_running_stats=True)
        (activate): ReLU()
      )
      (2): ConvModule(
        (conv): Conv2d(1024, 1024, kernel_size=(1, 1), stride=(1, 1), bias=False)
        (bn): SyncBatchNorm(1024, eps=1e-05, momentum=0.1, affine=True, track_running_stats=True)
        (activate): ReLU()
      )
    )
    (fpn_convs): ModuleList(
      (0): ConvModule(
        (conv): Conv2d(1024, 1024, kernel_size=(3, 3), stride=(1, 1), padding=(1, 1), bias=False)
        (bn): SyncBatchNorm(1024, eps=1e-05, momentum=0.1, affine=True, track_running_stats=True)
        (activate): ReLU()
      )
      (1): ConvModule(
        (conv): Conv2d(1024, 1024, kernel_size=(3, 3), stride=(1, 1), padding=(1, 1), bias=False)
        (bn): SyncBatchNorm(1024, eps=1e-05, momentum=0.1, affine=True, track_running_stats=True)
        (activate): ReLU()
      )
      (2): ConvModule(
        (conv): Conv2d(1024, 1024, kernel_size=(3, 3), stride=(1, 1), padding=(1, 1), bias=False)
        (bn): SyncBatchNorm(1024, eps=1e-05, momentum=0.1, affine=True, track_running_stats=True)
        (activate): ReLU()
      )
    )
    (fpn_bottleneck): ConvModule(
      (conv): Conv2d(4096, 1024, kernel_size=(3, 3), stride=(1, 1), padding=(1, 1), bias=False)
      (bn): SyncBatchNorm(1024, eps=1e-05, momentum=0.1, affine=True, track_running_stats=True)
      (activate): ReLU(inplace=True)
    )
  )
  init_cfg={'type': 'Normal', 'std': 0.01, 'override': {'name': 'conv_seg'}}
  (auxiliary_head): FCNHead(
    input_transform=None, ignore_index=255, align_corners=False
    (loss_decode): CrossEntropyLoss(avg_non_ignore=False)
    (conv_seg): Conv2d(256, 150, kernel_size=(1, 1), stride=(1, 1))
    (dropout): Dropout2d(p=0.1, inplace=False)
    (convs): Sequential(
      (0): ConvModule(
        (conv): Conv2d(1024, 256, kernel_size=(3, 3), stride=(1, 1), padding=(1, 1), bias=False)
        (bn): SyncBatchNorm(256, eps=1e-05, momentum=0.1, affine=True, track_running_stats=True)
        (activate): ReLU(inplace=True)
      )
    )
  )
  init_cfg={'type': 'Normal', 'std': 0.01, 'override': {'name': 'conv_seg'}}
)
2023-10-31 00:49:30,391 - mmseg - INFO - Loaded 6935 images
2023-10-31 00:49:32,417 - mmseg - INFO - Loaded 975 images
…
